public/images/Seattle_Prediction_MLP.onnx (onnx, 3876 bytes, 5 tensors)

coefficient f4 [19, 20]
0	0x3e2dc741	0.1697054
1	0x3d32626d	0.043550897
2	0x3d925c1a	0.07146473
3	0xbeb70b96	-0.35751027
4	0xbdc070d3	-0.093965195
5	0x3e192fe2	0.14959672
6	0xbe0190af	-0.12652849
7	0x3dc42078	0.095765054
8	0x3ddd49ba	0.10805078
9	0xbe880d3b	-0.26572594
10	0x3e2967bf	0.16543482
11	0xbc87d5c5	-0.016581425
12	0xbc118289	-0.00888122
13	0xbf16520b	-0.5871894
14	0xbccf1609	-0.025279062
15	0x3e1f19b4	0.15537149
16	0x3e8365fa	0.2566374
17	0x3d925bf1	0.07146443
18	0x3de5ac17	0.11214464
19	0x3c9d4288	0.019196764
20	0x3fa08ebf	1.2543563
21	0xbf913e1b	-1.1347078
22	0xbf23c514	-0.6397259
23	0x3e01e04e	0.12683222
24	0xbbf3b31c	-0.007437123
25	0x3e27bc4c	0.16380423
26	0x3e7d80f9	0.2475623
27	0xbf81a228	-1.0127611
28	0xbf21f713	-0.6326763
29	0xbebc7532	-0.36808163
30	0x3e5ddfb4	0.21667367
31	0xbf172247	-0.5903668
32	0x3efeb589	0.49747875
33	0xbf1724ec	-0.59040713
34	0x3f9f361e	1.243839
35	0xbe565baf	-0.20933412
36	0x3f23782e	0.63855255
37	0x3f6e605f	0.931158
38	0xbe1f88d8	-0.15579545
39	0xbf761c4f	-0.96136945
40	0x3e8562cf	0.26051947
41	0xbd24f4bb	-0.040272456
42	0x3e2f73a0	0.17133951
43	0xbf3caebc	-0.73704123
44	0x3e8c2a3a	0.27375966
45	0x3e898e48	0.26866364
46	0xbea706c4	-0.3262235
47	0xbf845cdf	-1.0340842
48	0xbdcc5b08	-0.099783
49	0xbed4791a	-0.41498643
50	0x3f3f4abe	0.7472342
51	0xbe941d9e	-0.28928846
52	0xbf30dcc5	-0.6908687
53	0xbe2c2adf	-0.16813229
54	0x400df36a	2.2179818
55	0x3c938892	0.018009458
56	0xbf0d88ea	-0.5528704
57	0x3b79ff13	0.003814642
58	0xc0044fe5	-2.0673764
59	0xbd0c9a67	-0.034326937
60	0x3affda17	0.0019519952
61	0xbbe6ff56	-0.0070494814
62	0xbee29f1c	-0.44262016
63	0x3cfde687	0.030993713
64	0xbe875c96	-0.26437825
65	0xbe854ede	-0.26036733
66	0x3c9121cc	0.01771631
67	0x3c086936	0.0083258655
68	0x3b077e2d	0.0020674572
69	0xbe233a95	-0.15940316
70	0xbe96d1ec	-0.29457033
71	0x3c5b21fe	0.013374804
72	0xbba79314	-0.0051139686
73	0xbe0983c2	-0.13429168
74	0x3b3bb90f	0.002864424
75	0xbcfd8608	-0.0309477
76	0xbd005dbb	-0.03133939
77	0x3c84851d	0.016176755
78	0xbdf225c1	-0.11823607
79	0x346c8906	2.2029062e-07
80	0xbd0cb991	-0.034356657
81	0xbe571928	-0.2100569
82	0x3ed8bf49	0.4233344
83	0xbdb69be9	-0.08916456
84	0x3e69dd82	0.22838405
85	0xbe51ca62	-0.20487359
86	0xbf561bfc	-0.8363645
87	0xbb899c57	-0.0041995454
88	0xbe65b357	-0.22431694
89	0x3d565439	0.052326415
90	0x3e176dfb	0.14788048
91	0x3f0e89f5	0.55679256
92	0x3e54f52e	0.20796654
93	0xbe80eeb7	-0.25182125
94	0xbb059640	-0.0020383745
95	0x3e924015	0.28564516
96	0x3d17aba3	0.03702892
97	0xbf425535	-0.75911266
98	0x3da72a44	0.081623584
99	0x3f02f99f	0.5116214
100	0xbf38a622	-0.721285
101	0x3e08b3ef	0.13349889
102	0x3e01432a	0.12623277
103	0x3e16dfc4	0.14733797
104	0x3eb33110	0.3499837
105	0xbe885625	-0.26628223
106	0xbf60384e	-0.87585914
107	0xbf6bbc1d	-0.92083913
108	0xbf1d3643	-0.6141092
109	0x3ee57fe3	0.44824132
110	0x3e88488a	0.26617843
111	0x3e8519c8	0.25996232
112	0xbe0381e8	-0.12842524
113	0xbd3b1cc0	-0.045681715
114	0x40442033	3.0644653
115	0x3f9152a8	1.135335
116	0xbef90d58	-0.48642993
117	0xbdf8d4a9	-0.12149937
118	0x3c824d93	0.01590613
119	0xbd52c6e7	-0.05145922
120	0x3e80bb12	0.25142723
121	0xbf286b77	-0.6578898
122	0x3d15b58b	0.036550086
123	0xbf289525	-0.65852576
124	0xbeee5eae	-0.4655661
125	0x3ef5a5c4	0.47978032
126	0xbf06f8b4	-0.5272324
127	0xbf0ebba4	-0.55755067
128	0xbf11f308	-0.5701146
129	0x3f3a87af	0.72863287
130	0xbf88a9c4	-1.0676808
131	0xbeb27b23	-0.3485957
132	0xbf2b60ea	-0.66944754
133	0xbd99c542	-0.07508327
134	0x3fd67e9d	1.6757389
135	0xbe8264ae	-0.25467438
136	0xbf0b9c09	-0.54534966
137	0x3f01b70c	0.5066993
138	0x3f9f2abd	1.2434918
139	0xbe170261	-0.14747001
140	0x3f5a824c	0.8535507
141	0x3f3c243d	0.73492795
142	0xbee948f3	-0.45563468
143	0x3f22320b	0.6335761
144	0xbe35df80	-0.1776104
145	0x3dd1cc6d	0.10244069
146	0xbe1f3178	-0.15546215
147	0xbe4e47cc	-0.20144576
148	0x3dbb3982	0.09141828
149	0xbf1363b9	-0.5757404
150	0x3e859389	0.26089123
151	0xbdb92cf5	-0.09041778
152	0xbf075e71	-0.5287848
153	0xbd3fe161	-0.046845797
154	0xbd26d291	-0.040728156
155	0xbe7cd8da	-0.24692097
156	0xbeda3321	-0.42617133
157	0xbc6a9371	-0.014317379
158	0xbf29862a	-0.66220343
159	0xbd72ecd8	-0.059307903
160	0x3f03c339	0.5146976
161	0x3f36d198	0.71413565
162	0x3e01787c	0.12643617
163	0x3dc9e6bf	0.098584644
164	0xbcfe75c5	-0.031062016
165	0x3e8b744d	0.27237168
166	0xbddf8b3d	-0.109152295
167	0xbee52006	-0.44750994
168	0x3ea44c12	0.32089287
169	0xbf4a2b80	-0.78972626
170	0xbe65229e	-0.22376487
171	0xbc42161b	-0.011846091
172	0xbdc3917d	-0.09549234
173	0x3c1d033b	0.00958329
174	0x3dd27afc	0.10277364
175	0xbdf12c66	-0.117760465
176	0xbd19feb1	-0.03759641
177	0xbd8a0994	-0.06740108
178	0xbd845b71	-0.064627536
179	0xbe4c602a	-0.19958559
180	0x3fac4363	1.3458065
181	0xbf87f3bb	-1.0621256
182	0xbdbe0a78	-0.092793405
183	0xbf0bb438	-0.54571867
184	0x3e5e90e3	0.21734957
185	0x3e63828a	0.22217765
186	0x3e454d90	0.19267869
187	0xbe2cfc60	-0.16893148
188	0xbf5ec225	-0.8701499
189	0x3e4b0296	0.19825205
190	0x3f20d252	0.62820923
191	0xbedbb6f5	-0.42913023
192	0x3e9251c4	0.28578007
193	0xbe665e33	-0.22496872
194	0xbfd1fbb9	-1.6404945
195	0x3f1395b7	0.5765032
196	0x3ece61be	0.40308946
197	0xbe177f97	-0.14794765
198	0xbf20d8af	-0.6283063
199	0xbf880ead	-1.0629479
200	0xbf969161	-1.1763116
201	0x3ee0b65c	0.4388913
202	0xbea0bdc4	-0.3139478
203	0x3e88977c	0.26678073
204	0xbf82c68a	-1.0216839
205	0x3da29217	0.07938021
206	0xbeae1681	-0.34001544
207	0x3eb8554a	0.3600257
208	0x3fafb8f0	1.3728313
209	0x3fad9c2a	1.3563282
210	0xbd16bdbe	-0.036802046
211	0x3f5c3ee9	0.86033493
212	0xbf41f986	-0.7577137
213	0xbde92e49	-0.11385781
214	0x3f807d86	1.0038307
215	0xbf6cba81	-0.9247208
216	0xbe69159e	-0.22762153
217	0xbf520de2	-0.82052433
218	0x3f639eb8	0.8891406
219	0x3f2ee3d1	0.6831637
220	0xbf9fe531	-1.2491819
221	0x3f5ec8ac	0.8702495
222	0x3e940118	0.28907084
223	0x3e2fdc4b	0.17173879
224	0xbe229cb8	-0.15880096
225	0x3ec9e2cc	0.39430845
226	0xbed339e7	-0.41255113
227	0x3f3c0403	0.7344362
228	0x3f6725cd	0.90292054
229	0x3fd1f039	1.6401435
230	0xbeb784f6	-0.3584363
231	0x3edca23d	0.43092528
232	0xbe8a8c75	-0.27060285
233	0xbd820067	-0.06347733
234	0x3fb68019	1.4257842
235	0xbfa1c573	-1.2638382
236	0xbef8382c	-0.48480356
237	0xbf3f9fcd	-0.7485321
238	0x3f85ccd6	1.0453136
239	0x3eac79be	0.33686632
240	0xbf199522	-0.59993184
241	0xbe1b69e9	-0.1517712
242	0xbe5d4ceb	-0.21611373
243	0xbe868b5f	-0.26278207
244	0x3daa6fd8	0.08322114
245	0xbe845c0e	-0.25851482
246	0x3d6bcaaa	0.057566322
247	0x3f48475b	0.7823388
248	0xbe25cd78	-0.16191661
249	0x3ecd4bd2	0.4009691
250	0x3e0cb24e	0.13739893
251	0x3e92bd4c	0.28660047
252	0x3e6d2f84	0.23162657
253	0x3b87da99	0.004145932
254	0xbf687dc1	-0.90816885
255	0x3e3bd84e	0.18344232

intercepts f4 [1, 20]
0	0xbe472648	-0.19448197
1	0x3ddee401	0.10883332
2	0xbeb86497	-0.36014244
3	0x3f2c1013	0.6721203
4	0xbe85f42b	-0.26162848
5	0x3f34522e	0.70437896
6	0xbdf8d586	-0.12150101
7	0x3f66126e	0.8987187
8	0x3f485247	0.78250545
9	0x3aa4c148	0.0012569809
10	0xbe6b05bf	-0.2295141
11	0x3f6b4598	0.91903067
12	0xbf2f2961	-0.68422514
13	0xbea61650	-0.32438898
14	0xbee4cb47	-0.44686338
15	0xbf155ac2	-0.5834161
16	0x3dd98d75	0.10622684
17	0xbf3b8561	-0.73250395
18	0x3ec1ed40	0.3787632
19	0x3f31644f	0.69293684

coefficient1 f4 [20, 8]
0	0xbe80146a	-0.25015575
1	0x3f90f423	1.1324505
2	0xbf94764e	-1.1598604
3	0xbf992384	-1.1963964
4	0xbea75f1a	-0.32689744
5	0xbf768610	-0.96298313
6	0x3f14c906	0.5811924
7	0x3fcf74c9	1.6207515
8	0x3f451ee0	0.77000237
9	0xbf389127	-0.72096485
10	0x3eab8e28	0.33506894
11	0x3f45bf00	0.7724457
12	0xbf07a1b6	-0.52981126
13	0x3e6f1db3	0.23351173
14	0x3d7b76b9	0.06139252
15	0xbeb4931d	-0.3526849
16	0xbea8cca3	-0.32968625
17	0xbdaf1c40	-0.0855031
18	0xbeb2c39b	-0.3491486
19	0xbe02d25c	-0.12775558
20	0x3ec9b09c	0.39392555
21	0xbf0bb393	-0.54570884
22	0x3d1c5993	0.038171362
23	0x3dc5bc94	0.09655109
24	0xbf0426df	-0.5162181
25	0xbd8de987	-0.069293074
26	0xbdafedc8	-0.08590275
27	0x3e8c3736	0.27385873
28	0x3eabdd72	0.33567387
29	0xbd9f5201	-0.07779313
30	0xbed86573	-0.422649
31	0xbea34aca	-0.31892997
32	0x3e32ccf8	0.17461002
33	0x3eae19a6	0.34003943
34	0xbee93870	-0.4555087
35	0x3de6fc0f	0.11278545
36	0x3ef507a5	0.47857395
37	0xbeb73ae1	-0.3578711
38	0x3db99f4d	0.09063587
39	0x3e4db3dd	0.20088144
40	0xbe8e414b	-0.2778419
41	0xbea00901	-0.3125687
42	0x3ea261ab	0.3171514
43	0x3ea533be	0.3226604
44	0xbe07457c	-0.132101
45	0x3d91514b	0.070955835
46	0x3e3b572c	0.18294972
47	0xbf0b6946	-0.5445751
48	0x3e4fc250	0.20288968
49	0x3eb31c26	0.34982413
50	0xbed81a05	-0.4220735
51	0xbf252f95	-0.6452573
52	0xbdfac6a1	-0.12244917
53	0xbf015925	-0.5052665
54	0x3dadf31d	0.08493636
55	0x3dabe415	0.083931126
56	0xbf43e78d	-0.76525193
57	0xbf991a64	-1.1961179
58	0x3f82b9bc	1.0212932
59	0x3f9bc4f7	1.2169484
60	0xbf01bf4e	-0.5068253
61	0x3f4bb6aa	0.795756
62	0xbed2f9ba	-0.4120615
63	0xbf9ba180	-1.2158661
64	0xbe85c786	-0.26128787
65	0xbf79f5d2	-0.9764072
66	0x3f24bf2d	0.6435421
67	0x3fadf8cf	1.3591555
68	0x3e7d49d9	0.24735202
69	0x3f21bafe	0.6317595
70	0xbf0782f7	-0.5293421
71	0xbf62346f	-0.8836126
72	0xbe4b14a4	-0.19832093
73	0xbed41c2a	-0.41427737
74	0x3ec7a2ca	0.38991386
75	0x3edfcac2	0.4370938
76	0x3e4a75a4	0.19771439
77	0x3eefa1d6	0.4680316
78	0xbe82deb2	-0.25560528
79	0xbdf3aefa	-0.118986085
80	0xbe6066a6	-0.21914157
81	0x3ec9b8e7	0.39398882
82	0x3db83115	0.08993737
83	0xbf0780da	-0.52930987
84	0xbe9c7d60	-0.30564404
85	0x3d194962	0.0374235
86	0x3e82d1ff	0.2555084
87	0x3d695ecf	0.056975182
88	0x3eb5fbf7	0.35543796
89	0xbf2a651f	-0.6656055
90	0x3f2f8189	0.6855703
91	0x3e175282	0.14777568
92	0x3e726e9c	0.23675007
93	0x3f05cb24	0.52263093
94	0xbf00287c	-0.50061774
95	0xbeee3321	-0.46523383
96	0x3e895b9b	0.26827702
97	0x3f548af0	0.830245
98	0xbf595717	-0.84898514
99	0xbee6d20b	-0.45082125
100	0xbf01a565	-0.50643
101	0xbf208777	-0.627067
102	0x3e9382ca	0.28810722
103	0x3f565215	0.83719
104	0xbe65a38f	-0.22425674
105	0x3e8e5599	0.2779968
106	0xb980d718	-0.0002457432
107	0xbe634a17	-0.22196232
108	0xbe9747fe	-0.29547113
109	0x3e983cde	0.29733938
110	0x3f3bc691	0.73349863
111	0x3e9795c1	0.2960644
112	0x400dd88c	2.216342
113	0x3f9a5db2	1.2059844
114	0xbfac878c	-1.3478866
115	0xbfb9df9a	-1.4521363
116	0x3ee4e6ed	0.44707432
117	0xbf92e9d4	-1.1477609
118	0xbdb8196f	-0.08989226
119	0x3fb8429e	1.439533
120	0xbe97787b	-0.29584107
121	0x3e885ce7	0.2663338
122	0xbf01423a	-0.5049168
123	0xbe803bca	-0.25045615
124	0xbe4a7706	-0.19771966
125	0x3e06cac4	0.13163286
126	0x3f11fcf8	0.57026625
127	0x3eddd2c5	0.43324867
128	0xbe13c82b	-0.14431827
129	0x3c1d5e98	0.009605072
130	0xbe9ab87d	-0.30218878
131	0xbeb67fbe	-0.35644335
132	0x3e84e09a	0.25952607
133	0xbf094018	-0.53613424
134	0xbf02e2bf	-0.5112724
135	0x3d1e7a26	0.03869071
136	0x3f16e278	0.58939314
137	0x3f34396e	0.7040013
138	0xbf2de0a7	-0.6792092
139	0xbf2642a9	-0.64945465
140	0xbef94ab8	-0.48689818
141	0xbeca9d78	-0.39573264
142	0x3e9db2a1	0.30800346
143	0x3ed85341	0.42251018
144	0xbf1ca4fd	-0.6118925
145	0xbebb031a	-0.36525804
146	0x3e83fd5e	0.2577924
147	0x3ef61398	0.48061824
148	0xbd974d37	-0.073877744
149	0x3e7a005e	0.24414203
150	0xbf318526	-0.69343793
151	0xbe4a04c3	-0.19728379
152	0x3ec3e5ef	0.38261363
153	0xbf2babba	-0.6705891
154	0x3f1fd9a1	0.6244145
155	0x3f1b13b0	0.60576916
156	0x3dc083c9	0.09400136
157	0x3ea20155	0.3164164
158	0xbf10d1c8	-0.565701
159	0xbf6a0f02	-0.9142915

intercepts1 f4 [1, 8]
0	0xbebf2f82	-0.37340933
1	0x3d167f2a	0.036742367
2	0x3dbe8879	0.09303374
3	0x3f2326ef	0.6373128
4	0x3d03eb28	0.032206684
5	0x3ee606ef	0.44927165
6	0x3d292ffc	0.041305527
7	0xbed94957	-0.42438766

coefficient2 f4 [8, 1]
0	0x3fa0ddc5	1.2567679
1	0x3f82ec8d	1.022844
2	0xbf792710	-0.9732523
3	0xbf95b340	-1.1695328
4	0xbe389b1c	-0.1802792
5	0xbfac3bf0	-1.3455791
6	0x3fbaec45	1.4603354
7	0x3f5aeaf9	0.8551479
