public/assets/prediction-model/oradell_Prediction_MLP.onnx (onnx, 3876 bytes, 5 tensors)

coefficient f4 [19, 20]
0.04728694 0.3808132 0.25797355 -0.31461218 -0.33285645 0.19604172 -0.06667202 -0.20552285
0.05040761 -0.26323375 0.3085594 0.08868277 0.08883203 -0.2684259 0.21845649 -0.43105093
0.36308953 0.029526997 0.32508513 0.30435792 0.7830739 -0.010788521 -0.32629144 -0.46361747
0.13795969 -0.26274046 0.6871306 -0.15199621 -0.6607372 -0.2611571 0.30329603 -0.24063858
0.696897 -0.7824434 0.55960715 0.0016366928 -0.15383914 0.9142047 -0.012105052 0.0547704
0.45488366 0.4584335 -0.12173154 -0.92765343 -0.3763129 0.6106058 0.3617918 -0.47487882
-0.20502828 0.05655998 0.04893965 0.29748675 0.20943452 -0.79535633 0.7562565 -0.55640703
-0.39620602 0.61092544 0.5313649 0.38646278 0.0825008 0.13222554 -0.24605864 0.0976847
-0.2350867 -0.42531246 0.0058475574 -0.015781784 0.2413486 -0.2583011 -0.16707417 -0.1946744
0.020063715 0.12448201 0.08660872 -0.27601594 -0.05300236 0.032440316 -0.29064277 0.01720579
-0.055880945 -0.13820879 0.37285405 -0.1511747 0.19420217 0.053137027 -0.054273106 0.03161361
-0.0709134 0.07988454 0.27912715 0.4054234 0.12961599 -0.11470595 0.0027372132 0.2026528
0.1317591 -0.15916252 0.13483891 0.36842436 -0.12173147 0.05856523 -1.0854058 0.28400958
0.29507446 -0.2641313 -0.36531276 -0.3312306 -0.32220316 0.08918876 0.5375718 0.26509565
-0.13024233 0.040028743 0.20953603 -0.13099399 -0.4484955 -0.044226326 0.52887833 0.32671958
0.016600879 -0.036894336 0.68113005 -0.54827046 -0.6038838 -0.21645816 0.24492678 0.23446417
-0.69319564 0.503114 -0.48547545 0.2013566 -0.037127305 -0.6599398 0.6415526 0.09909475
0.1309853 0.45675024 0.54542696 0.30933085 0.8782578 1.1868739 -0.8157025 2.9302138e-34
0.37566933 0.15014097 1.1573488 -0.6286221 -0.6387894 -0.38219976 0.6642654 -0.3545
0.49434158 -0.049127024 0.9330815 -0.22876963 -0.2351752 0.24710405 -0.6089935 0.33777615
-0.043762814 0.27258158 0.45287725 -0.026199814 -0.22350793 -0.3277818 -0.297683 -0.21835949
0.12912202 -0.17685361 -0.42311743 0.2622337 0.0066909916 -0.033612326 0.024103882 0.025969312
0.20341489 -0.0860886 0.07848302 -0.17934617 0.29290953 0.123130485 0.2148451 -0.12332793
0.046838064 0.2240307 0.103450604 -1.1898381e-31 -0.25976333 0.15422012 -0.5613453 -0.18448596
0.23134069 -0.39393386 -0.04689988 -3.0538747e-10 -0.20704402 -0.025190499 -0.37611046 -0.16916119
-0.6906009 -0.47906783 -4.63435e-09 0.098838456 -4.6661327e-05 5.644e-22 -0.2929175 -3.4041896e-06
0.4624099 -4.327073e-06 -0.113713376 1.9926984e-30 -0.2887291 0.21058466 -0.052752297 -5.0844944e-15
-0.31717008 -0.6142385 -0.1953326 -0.55782914 -0.6133423 -0.069979176 0.4501868 -0.041170485
0.015854824 -0.19854459 -0.38088748 0.030062452 0.63770336 -5.488509e-28 1.0002406 0.72143745
-0.4254065 0.23838003 -0.54816204 -1.1736341e-13 0.35372812 -0.6767148 0.8300235 -0.5482692
-5.749947e-35 -3.517757e-08 -3.5204925e-05 -1.8724395e-35 -5.8740555e-30 2.4195273e-14 -6.4253675e-10 2.7580432e-05
-1.79963e-28 5.39474e-16 4.880347e-13 1.6835038e-05 1.8747955e-14 -6.334917e-08 3.0766688e-16 4.882404e-08
00000000: f3af 413d f3f9 c23e 1c15 843e d914 a1be
00000010: 296c aabe 29bf 483e 578b 88bd 9574 52be
00000020: 3678 4e3d 93c6 86be 7ffb 9d3e 509f b53d
00000030: 91ed b53d 1f6f 89be 0fb3 5f3e b5b2 dcbe
00000040: dfe6 b93e 9ae2 f13c 8f71 a63e cdd4 9b3e
00000050: 8877 483f 56c2 30bc ac0f a7be 455f edbe
00000060: 4e45 0d3e eb85 86be cae7 2f3f e5a4 1bbe
00000070: 1326 29bf 62b6 85be 9e49 9b3e f669 76be
00000080: d767 323f 364e 48bf 6a42 0f3f 4c86 d63a
00000090: 0288 1dbe 5209 6a3f 4554 46bc ed56 603d
000000a0: 83e6 e83e ccb7 ea3e 634e f9bd b27a 6dbf
000000b0: 16ac c0be a950 1c3f c63c b93e 5123 f3be
000000c0: eff2 51be 70ab 673d f174 483d 2f50 983e
000000d0: 0176 563e 799c 4bbf 079a 413f b170 0ebf
000000e0: 84db cabe 9c65 1c3f 8807 083f 73de c53e
000000f0: 2ef6 a83d 2266 073e ccf6 7bbe ea0e c83d
00000100: 91ba 70be 8ec2 d9be de9c bf3b cd48 81bc
00000110: 1624 773e 0b40 84be 7e15 2bbe ba58 47be
00000120: a95c a43c 6df0 fe3d ea5f b13d f651 8dbe
00000130: 0119 59bd 23e0 043d 21cf 94be 28f3 8c3c
00000140: 6be3 64bd 9b86 0dbe bae6 be3e 8acd 1abe
00000150: efdc 463e 36a6 593d 7a4d 5ebd 467d 013d
00000160: 0b3b 91bd 819a a33d c1e9 8e3e a893 cf3e
00000170: 0eba 043e f4ea eabd d162 333b 3784 4f3e
00000180: dceb 063e 80fb 22be 3613 0a3e 1ea2 bc3e
00000190: 594e f9bd 18e2 6f3d 94ee 8abf b469 913e
000001a0: 0014 973e 383c 87be 460a bbbe 0f97 a9be
000001b0: d0f7 a4be 99a8 b63d 4e9e 093f 9eba 873e
000001c0: 3f5e 05be 2ef5 233d 9d90 563e 4a23 06be
000001d0: 34a1 e5be aa26 35bd 9264 073f ca47 a73e
000001e0: 91fe 873c 841e 17bd 8a5e 2e3f 745b 0cbf
000001f0: 2198 1abf 35a7 5dbe 16ce 7a3e 6017 703e
00000200: 4575 31bf 14cc 003f 3d90 f8be 6d30 4e3e
00000210: cd12 18bd d1f1 28bf cb3c 243f 30f2 ca3d
00000220: 0321 063e 2bdb e93e 1aa1 0b3f 9d60 9e3e
00000230: 81d5 603f 7ceb 973f e1d1 50bf 01bf c207
00000240: bb57 c03e 8ebe 193e 0124 943f 61ed 20bf
00000250: b487 23bf b0af c3be 4c0d 2a3f 0681 b5be
00000260: 571a fd3e 6b39 49bd 6ede 6e3f 9642 6abe
00000270: c5d1 70be d808 7d3e ffe6 1bbf fff0 ac3e
00000280: a340 33bd d08f 8b3e 87df e73e fea0 d6bc
00000290: 43df 64be 04d3 a7be e869 98be a199 5fbe
000002a0: 9038 043e 1d19 35be d9a2 d8be 7f43 863e
000002b0: 1b40 db3b 14ad 09bd 8175 c53c 98bd d43c
000002c0: fe4b 503e 384f b0bd b5bb a03d 86a6 37be
000002d0: 3df8 953e d62b fc3d 5b00 5c3e 5b93 fcbd
000002e0: 45d9 3f3d 4e68 653e e9dd d33d 2773 1a8c
000002f0: b3ff 84be e1eb 1d3e 53b4 0fbf e3e9 3cbe
00000300: 93e4 6c3e b3b1 c9be 171a 40bd 77e3 a7af
00000310: 5903 54be 4e5c cebc 8d91 c0be 9738 2dbe
00000320: 38cb 30bf 6148 f5be 2c3c 9fb1 d16b ca3d
00000330: 38b6 43b8 5694 2a1c 48f9 95be 8873 64b6
00000340: fec0 ec3e 4631 91b6 8fe2 e8bd baaa 210e
00000350: 4dd4 93be 81a3 573e cb12 58bd 2f30 b7a7
00000360: 1e64 a2be bc3e 1dbf 4505 48be e4cd 0ebf
00000370: 0004 1dbf 3e51 8fbd e27e e63e 62a2 28bd
00000380: fae1 813c 464f 4bbe af03 c3be 8845 f63c
00000390: 8740 233f 13f0 2d92 e207 803f 20b0 383f
000003a0: e1ce d9be e519 743e 5954 0cbf b323 04aa
000003b0: da1b b53e 2e3d 2dbf 6c7c 543f 5f5b 0cbf
000003c0: 1ddc 9886 2616 17b3 00a9 13b8 a71c c785
000003d0: ae47 ee8e 80ee d928 819e 30b0 875c e737
000003e0: 5521 6491 287e 1b26 9b5e 092b f838 8d37
000003f0: d7dd a828 930a 88b3 9e5b b125 9ab2 5133

intercepts f4 [1, 20]
-0.45897338 -0.33759958 -0.03435981 0.55664265 0.06264475 0.12700169 -0.09616665 0.083837464
0.63052505 0.051970933 0.356434 0.45237437 -0.48137656 0.27507243 -0.2725423 -0.4520771
0.24791096 -0.55775094 0.39633903 0.096386746
00000000: 8ffe eabe dad9 acbe dfbc 0cbd 2280 0e3f
00000010: e44b 803d bb0c 023e 05f3 c4bd fab2 ab3d
00000020: 176a 213f 79df 543d 847e b63e 9d9d e73e
00000030: fd76 f6be 4bd6 8c3e aa8a 8bbe a676 e7be
00000040: 5fdc 7d3e c4c8 0ebf f3ec ca3e 6a66 c53d

coefficient1 f4 [20, 8]
-0.041100044 0.42935652 -0.49966982 0.6729258 -0.045729358 -0.5181907 0.15813215 0.70304847
0.57089067 0.083115794 0.15253504 -0.21651751 -0.18275864 0.09985196 -0.05872642 0.539522
-0.423348 -0.3041829 -0.17660648 0.07975914 0.305952 -0.61741096 -0.08298676 -0.097320534
-0.7088321 0.124693856 0.18388236 -0.042773496 0.52949005 0.28167948 -0.0073276367 -0.34551075
0.15006743 0.33780345 -0.56156045 0.07622914 0.37627718 -0.16146296 0.030330913 0.23302175
0.14671062 0.006406693 0.09495513 0.30288264 -0.2558288 -0.2110421 -0.17361733 -0.16703206
0.5763935 0.9087997 -0.90754694 0.43748537 -0.6687619 -1.0454026 -0.027673367 0.5110925
0.0021873168 -0.18834515 -0.16138735 -7.7727685e-07 0.09212116 5.8882808e-05 -0.13461377 -2.6523963e-07
-0.05202317 -0.37651473 0.20466222 0.2060882 0.22816117 0.33750564 -0.27012318 -0.16913417
-0.19975017 -0.03898892 0.33087566 0.19474606 -0.14330493 0.3677571 0.11251934 0.16487156
-0.24720079 0.22466907 0.25020385 -0.3607224 -0.39082903 0.69912136 0.21898234 -0.43345678
0.4474885 -0.31135777 0.3659848 -0.19384004 0.19775508 -0.0034782267 -0.2426453 -0.18520764
0.18208443 0.882529 -0.4337483 0.83812827 -0.16244562 -0.7433696 0.29877222 0.5994602
-0.5055572 -0.030518943 0.423408 -0.31214014 0.029332481 0.6430734 -0.2597567 -0.21029499
0.6584169 0.2270179 -0.26164758 0.40518418 0.20016323 -0.4352077 -0.46082646 0.4876247
-0.3767494 0.19016734 -0.48586008 -0.0026602035 -0.098367795 0.03611681 0.3893955 3.1263905e-09
0.17908259 -0.38299415 -0.25370193 -0.55739456 0.3678865 -0.19704293 -0.2520641 -0.6454169
0.8996064 0.85647917 -0.42288184 0.601794 -0.95775646 -0.43004283 -0.12197172 0.3624135
-0.40974897 -0.21792114 -0.13621879 0.088577144 -0.44019383 0.5584509 -0.10906434 0.12634362
0.46577677 0.030993866 0.044962574 -0.19307733 -0.029548602 -0.14751352 -0.07463566 -0.12951455
00000000: 8558 28bd 9ed4 db3e b9d4 ffbe dd44 2c3f
00000010: b54e 3bbd 25a8 04bf 65ed 213e fcfa 333f
00000020: e425 123f 9d38 aa3d 2532 1c3e c4b6 5dbe
00000030: 1525 3bbe 2f7f cc3d 1d8b 70bd 1d1e 0a3f
00000040: 12c1 d8be dcbd 9bbe 54d8 34be c358 a33d
00000050: bea5 9c3e a50e 1ebf f6f4 a9bd fd4f c7bd
00000060: 0576 35bf 7e5f ff3d a84b 3c3e 4333 2fbd
00000070: a98c 073f 4b38 903e ac1c f0bb c9e6 b0be
00000080: 47ab 193e 93f4 ac3e 6dc2 0fbf 061e 9c3d
00000090: 67a7 c03e 8c56 25be 8978 f83c 419d 6e3e
000000a0: 4f3b 163e 3cef d13b d677 c23d 6f13 9b3e
000000b0: fefb 82be 6c1b 58be bec8 31be 740a 2bbe
000000c0: 868e 133f 19a7 683f ff54 68bf 15fe df3e
000000d0: fb33 2bbf c1cf 85bf 42b3 e2bc f5d6 023f
000000e0: 1659 0f3b 8ddd 40be ba42 25be 0fa6 50b5
000000f0: 05aa bc3d eff8 7638 31d8 09be 4266 8eb4
00000100: 3f16 55bd 8ac6 c0be f992 513e c908 533e
00000110: 15a3 693e 8acd ac3e 964d 8abe 8231 2dbe
00000120: 4f8b 4cbe d9b2 1fbd 8968 a93e 836b 473e
00000130: 87be 12be a94a bc3e 8a70 e63d 17d4 283e
00000140: 3422 7dbe a60f 663e b81a 803e 9bb0 b8be
00000150: be1a c8be 9ef9 323f e83c 603e 0cee ddbe
00000160: 361d e53e 496a 9fbe 5c62 bb3e 017e 46be
00000170: 4f80 4a3e f6f2 63bb 0278 78be 12a7 3dbe
00000180: 5774 3a3e 6ced 613f 4214 debe 938f 563f
00000190: 2558 26be 784d 3ebf acf8 983e 3976 193f
000001a0: 326c 01bf dd02 fabc efc8 d83e d5d0 9fbe
000001b0: ac4a f03c 75a0 243f d5fe 84be 9257 57be
000001c0: 038e 283f 6177 683e acf6 85be 4d74 cf3e
000001d0: 97f7 4c3e 8bd3 debe 72f1 ebbe f2a9 f93e
000001e0: 4ce5 c0be 3abb 423e a7c2 f8be cf56 2ebb
000001f0: 0e75 c9bd 38ef 133d d95e c73e 0bd8 5631
00000200: 6d61 373e cf17 c4be 38e5 81be 69b1 0ebf
00000210: 9f5b bc3e 9fc5 49be 8c0e 81be 0b3a 25bf
00000220: 9b4c 663f 3842 5b3f f883 d8be 2c0f 1a3f
00000230: 872f 75bf 932e dcbe 4fcc f9bd 438e b93e
00000240: 9eca d1be b826 5fbe f07c 0bbe ef67 b53d
00000250: 1661 e1be a3f6 0e3f 205d dfbd 3960 013e
00000260: 4b7a ee3e d9e6 fd3c ad2a 383d 10b6 45be
00000270: e90f f2bc c90d 17be 95da 98bd 769f 04be

intercepts1 f4 [1, 8]
-0.39895946 0.076116286 0.1305426 0.17957057 0.22195613 0.60097563 0.5306029 -0.26533002
00000000: 6a44 ccbe dbe2 9b3d f6ac 053e 59e1 373e
00000010: 7848 633e 8ad9 193f 97d5 073f 56d9 87be

coefficient2 f4 [8, 1]
0.42532155 0.8434998 -0.5560859 0.1113266 -0.43712005 -1.2038854 1.046521 0.6113594
00000000: bfc3 d93e 9aef 573f a55b 0ebf 33ff e33d
00000010: 33ce dfbe eb18 9abf 66f4 853f 0d82 1c3f
