public/assets/prediction-model/seattle_Prediction_MLP.onnx (onnx, 3876 bytes, 5 tensors)

coefficient f4 [19, 20]
00000000: 7f02 74bc 84dd 1a3d edbe d3bd 95b0 82be
00000010: c80e 113e 264f 3a3e 373d c93c 82fb 0b3e
00000020: 9452 953d fd77 09bf 060e 5b3e c087 07be
00000030: 8b49 cebd b077 debe 4d07 41bd 41b0 fdbd
00000040: 29e2 15bc 3a30 153e 8d16 9ebd 85c9 143e
00000050: 249f ba3f 31b6 b7bf d0d5 03bf 82c6 bc3c
00000060: 797d 3c3e 4ce0 a53e 41be ac3e c096 4dbf
00000070: aae7 45bf f56c 7fbf 9d98 01be d977 5bbf
00000080: 86c3 a33e 59df 03bf fb6c 8d3f afd1 d33e
00000090: e965 06bf a758 9f3f 7d15 56be 63c6 57bf
000000a0: 7e26 333f d313 09bd 8da9 ccbf dc4d c2bf
000000b0: 048e 1fbe f5d9 da3d b965 9e3e cac3 a0bf
000000c0: 9453 863e 0b04 eabe bb53 073f 7006 afbe
000000d0: 81a1 36be 9a2f fa3d 3d46 1d40 8b40 d5bf
000000e0: 0098 b1be 7d92 313e 078c f8bf 218f ecbd
000000f0: 7d73 1fbc 95ff febb 9580 f8be 7223 a4bc
00000100: aff0 25be 259b 9abe 6ffe a9ba a6d7 103c
00000110: 5c74 07bb a98b 73bd 030f 89be 20ae 08bd
00000120: 0115 7d3c 3b2a 25be 0b22 403b 20d1 f1bb
00000130: f8b5 ebbd 3c38 97bc 0d58 29bc d517 d03a
00000140: 3f46 8c3b 1b14 20be 4d41 c63e 8a70 86bd
00000150: 3b27 9e3e b0c8 90be 11a7 48bf 7beb bf39
00000160: 01f8 7abe 4aed 903d b1e5 543e 456e 103f
00000170: cb9c 943e 1d21 71be 569b 17bb acdf a53e
00000180: b106 b93e b3ff 1ebf a5aa 383d b356 ec3e
00000190: 543f c03e 3424 a23e b395 9c3e 6938 6a3e
000001a0: 0a10 003f c25a 2dbe ceea a1bf 4a2a 92bf
000001b0: 2803 1dbf 1e51 d23e 0c33 883d 1c13 1c3f
000001c0: d1d7 6cbe 6e6d 9bbd 8055 5240 1f52 833f
000001d0: 6ea6 603e f2b1 24be d279 553f 558b 143c
000001e0: 94bb 193f 217d cabe e129 9c3e 28da 92bf
000001f0: 6905 d9be e415 123f d8bf 803e 04de 0fbf
00000200: a535 44bf 8542 f23e 442e bfbe 794b 55be
00000210: 82b9 5dbe 6a71 89bd 1049 0440 f4db 9bbf
00000220: 6923 dd3d 934d dc3e d70b fcbe e1c7 9dbe
00000230: c74a e0bd f49b 253f d9b3 eabd 65f4 ec3e
00000240: 5113 823d bda9 e93d c725 1ebe a2cb 13be
00000250: be29 8fbc 0400 f9be 1470 bdbd 86cc f0bd
00000260: 7007 c6be 5e28 74bd c281 31bd dbdf 97be
00000270: 0f96 543e 2024 2e3e 5418 90bf 1424 e5bd
00000280: f52c 39be 0467 183f ad3a c93c ced5 e53d
00000290: 7ea5 cfbc 47da 0a3d da09 0ebe 6c2a d7be
000002a0: 3792 593e 1beb 7bbf a3af ebbe ffa4 1c3d
000002b0: c7b2 303e d088 f2ba 9a26 c23d 9dcd 7bbe
000002c0: 003a 243e 01a9 67bb e57c 2cbf 1b02 46be
000002d0: 1264 4e3f 1174 9dbf f21e 48be 6920 943d
000002e0: b93f b93e e8bc 9dbe 95c4 61be 515e 36be
000002f0: a5b9 5abf 599b f03e d2ee 3a3f f04b f6be
00000300: fdf2 4e3e 6949 39be b79a e4bf 5540 473f
00000310: 8781 dcbd 20dd bfbe 1c63 f0bf ed65 54bf
00000320: 4411 06bf 9ae8 0abd f9bd 543e fa17 ef3e
00000330: 4240 e3be 53a3 11bd 3da8 353d 50c8 ab3e
00000340: 4eb0 9b3f 54f4 05be f7cc e13e 1ca0 4a3e
00000350: 3b64 3ebf e3ce 1a3e a86b 8b3e d3ff 1ec0
00000360: 3176 bfbe 0fa8 51be 9d6c a33f 104c cd3e
00000370: 8aa1 b0bf e7e1 b73f 17ba a0bc 124f 55bf
00000380: e39e 46bf 9f13 043f 2ee1 f6be b0e3 523f
00000390: 9e92 833f bd41 c83f b607 2dbf f4a8 783f
000003a0: 4e4c 05bf ff99 91be 8808 883f 9cd0 783c
000003b0: dca6 3fbe 95f7 84bf 07a1 d03e 71ae 293f
000003c0: dbf9 0bbf 00e0 17bd a130 76be 299b 90be
000003d0: e530 e23b 8f12 8d3c f4d5 7a3c 2748 413f
000003e0: 11e5 69be 5d8d 4b3f 253c ea3e 88fc a53e
000003f0: 4cb4 0c3e 1021 bbbb 2dc1 47bf d459 5fbe
-0.014893173 0.03780891 -0.103391506 -0.25525346 0.14165795 0.18194255 0.024565322 0.13670161
0.07291141 -0.5369871 0.21392068 -0.13235378 -0.10072621 -0.4345069 -0.047126103 -0.123871334
-0.009148159 0.14569178 -0.07719145 0.14529999 1.4579816 -1.4352475 -0.51498127 0.023043875
0.18407239 0.32397687 0.33738902 -0.8030815 -0.77306616 -0.9977563 -0.12655874 -0.8572975
0.3198511 -0.51512676 1.1048883 0.41370913 -0.5249925 1.244893 -0.20906635 -0.8428709
0.6998061 -0.03346617 -1.5989243 -1.5180011 -0.15581518 0.10686103 0.30936983 -1.255975
0.2623564 -0.4570621 0.5286214 -0.341846 -0.17835046 0.122161105 2.457412 -1.6660322
-0.3468628 0.17341037 -1.9417733 -0.11550737 -0.009732124 -0.0077819326 -0.485356 -0.020036433
-0.16205095 -0.3019649 -0.0012969504 0.008840477 -0.002066872 -0.059459362 -0.26769266 -0.033369184
0.015446902 -0.16129391 0.0029317166 -0.007379666 -0.11509317 -0.018459432 -0.010335934 0.0015876243
0.004280835 -0.1563267 0.38721696 -0.06564434 0.30889305 -0.28278112 -0.78379923 0.00036605806
-0.24508668 0.07076509 0.20790745 0.5641826 0.29025874 -0.23547788 -0.002313336 0.3239721
0.36137918 -0.62108916 0.045084614 0.46159896 0.37548316 0.31668246 0.3058296 0.22873081
0.50024474 -0.16929153 -1.2649782 -1.1419156 -0.6133294 0.41077513 0.066503614 0.6096666
-0.23129202 -0.075892314 3.2864685 1.0259436 0.21938488 -0.16083506 0.8338901 0.0090664225
0.60051847 -0.3954859 0.305007 -1.1472826 -0.4238694 0.5706465 0.25146365 -0.56198144
-0.76644355 0.47316375 -0.37339985 -0.20829572 -0.21652797 -0.06711085 2.0669594 -1.2176499
0.107977696 0.43027934 -0.49227783 -0.30816558 -0.10951763 0.6469109 -0.114600845 0.46280208
0.063513406 0.11409328 -0.15444098 -0.14433149 -0.017475959 -0.48632824 -0.09249893 -0.1175776
-0.3867755 -0.05960881 -0.043336637 -0.29662976 0.20760368 0.17005968 -1.1257424 -0.11188522
-0.18083556 0.5953219 0.024564112 0.11222421 -0.025347468 0.03389957 -0.13870946 -0.42024553
0.21247183 -0.9840562 -0.46032438 0.03824329 0.17255698 -0.0018503908 0.09480019 -0.24590154
0.1603775 -0.0035348537 -0.67378074 -0.1933674 0.80621445 -1.2301046 -0.19543055 0.07232744
0.3618143 -0.30808187 -0.22047646 -0.17809416 -0.8543952 0.4699352 0.7302066 -0.4810481
0.2020988 -0.1809441 -1.7859715 0.7783254 -0.10766893 -0.37473392 -1.8780246 -0.82968026
-0.52370095 -0.033913232 0.20775594 0.4669798 -0.44384962 -0.03555615 0.044349898 0.33551264
1.2163179 -0.13081485 0.44101688 0.1978764 -0.7437169 0.15117984 0.27230573 -2.4843643
-0.3739486 -0.20474266 1.2767521 0.40097094 -1.3799298 1.4365815 -0.019619985 -0.83323777
-0.7758619 0.5159244 -0.48218673 0.82378674 1.0279119 1.5645062 -0.6758989 0.971328
-0.52069557 -0.28437802 1.0627604 0.015186455 -0.18715996 -1.0388056 0.40747854 0.662818
-0.54678124 -0.037078857 -0.24041988 -0.28243378 0.0069028013 0.017220763 0.015309799 0.7550072
-0.22841288 0.7951258 0.45749012 0.3241923 0.13740653 -0.0057107285 -0.7802914 -0.2181161

intercepts f4 [1, 20]
00000000: adff 41bf 7c5e e73d 35af 3ebe 926d 213f
00000010: ef8e ca3d 6a9a 1f3f b075 25be 130e 763f
00000020: 6d3a 503f 6707 a9be 01fe b6be 0625 533f
00000030: 110b 51bf f1bc aebe 21b4 d2be 1026 06bf
00000040: 3c45 f6bd 2b0c 1bbf 8715 6cbe b434 513f
-0.75780755 0.11297318 -0.18621524 0.63057816 0.09890544 0.6234499 -0.16158175 0.96115226
0.8133915 -0.3301346 -0.35740665 0.8247837 -0.8165751 -0.34128526 -0.41153052 -0.5240183
-0.12024924 -0.6056544 -0.23055087 0.81721044

coefficient1 f4 [20, 8]
00000000: e0fe bdbe d44d 553f c501 79bf 0dc4 93bf
00000010: ab73 483f 0da6 75bf 64c9 693e 0984 a33f
00000020: 9566 693f be62 53bf b407 183f e50d 8a3f
00000030: cdda 15bf ffd6 163f 4f1b 753d 7992 0bbf
00000040: c19c b2be bf5d f4bd 86fb 95be 4535 3dbd
00000050: 199a 803e ea3a 0fbf 1c2c eebd 7f18 80bc
00000060: 83c4 33bf 8378 8ebe ceac 4c3e cfb5 e43e
00000070: 5522 e33e 6b60 353c ece5 afbe 63f2 abbe
00000080: 5987 493e 4632 c23e 976b f0be 6845 bb3d
00000090: 5f7f c43e 4385 b3be 4fb5 6a3d f7ea 403e
000000a0: 86ad 22bf d972 1dbf 86ab 0f3f 830d 273f
000000b0: d99d edbc caa2 913d cf4c 0c3e 40c0 18bf
000000c0: dd78 5b3e b099 113f 6fb9 1dbf 5fe5 42bf
000000d0: c728 0ebf 2e7c e9be 6a30 483e 41ed 073e
000000e0: e747 6fbd c6f0 67bf ed22 453f ac13 5e3f
000000f0: d77e 21bf 0a8e 7c3f 4be6 1cbf e833 63bf
00000100: b521 35be 4f44 8bbf 2a4b 4b3f 0cea b53f
00000110: 55d1 a9bd b2aa 3c3f 2e6c f3be 9d0b 75bf
00000120: 9551 cdbe da78 c6be f16e f63e 114b fe3e
00000130: 4c59 85bd 794d c33e 99f1 3cbe 4fc6 63be
00000140: 3cbc 77be e9bb c23e 2d8d 1b3e 753f f4be
00000150: be05 cbbe 73ea a13d 387e 823e 240e 013c
00000160: ed8f d33e 9d96 4ebf 7018 553f f7c6 e33e
00000170: d631 de3e cb65 1a3f 9e8b 02bf e8f2 32bf
00000180: 8b70 463e 4f97 4a3f da62 44bf 7272 abbe
00000190: 8d7b 05bf 8203 fcbe 0336 cd3e 81dd 3e3f
000001a0: 8a58 44be 8f8f 9a3e 0da0 283c 1adb 55be
000001b0: 920d 02bf 9aea 803e 6a00 473f d25c 8a3e
000001c0: 2d32 d33f c36a ae3f 6a05 b8bf 76f6 c7bf
000001d0: 54f0 ec3e 8bf3 b6bf bf8f d8bd 8499 b43f
000001e0: 81b5 1abe 060c f33e 1715 29bf 4f0f cbbe
000001f0: 5c7d 84be 9bb6 29bb b5b3 633f 536a 073f
00000200: 52d5 f63d 60cb 32be d491 4cbe 6d2c 91be
00000210: 9dee f33e 7b2f a3be 4bac 84be 7764 163d
00000220: a00d 913e a0bd 3f3f 72ee 3cbf 587b 52bf
00000230: 77a9 c0be c86e 3fbf 1728 c33e 890a ff3e
00000240: 3b8e 71bf 1edd 3ebf 2239 283f c85a 423f
00000250: f353 1e3d 14bc 5e3e c0b2 71bf 2ff5 f6be
00000260: 4fa1 023f 8c79 2dbf d659 323f 2e38 123f
00000270: 8032 15be 8208 a83e d15d 0cbf 66a8 81bf
-0.37108517 0.8332188 -0.97268325 -1.1544205 0.78301495 -0.959565 0.2283073 1.2774669
0.9117215 -0.82572544 0.59386754 1.078549 -0.5853699 0.5892181 0.059840497 -0.54520375
-0.3488522 -0.11931943 -0.2929346 -0.04619338 0.25117567 -0.5594927 -0.11629507 -0.01563668
-0.7022173 -0.27826318 0.19987795 0.4466996 0.4436213 0.011070351 -0.34355104 -0.33583364
0.19680537 0.3792898 -0.46957085 0.091440976 0.38378426 -0.35062608 0.057301816 0.18839632
-0.63546026 -0.6150337 0.561211 0.6525499 -0.029005932 0.07111128 0.13701175 -0.5966835
0.21432824 0.56875134 -0.61611074 -0.7613124 -0.5553097 -0.45602554 0.19549718 0.13274099
-0.05841818 -0.90601766 0.7700642 0.86748767 -0.6308417 0.98654234 -0.612889 -0.8875108
-0.1768864 -1.0880221 0.79411566 1.421205 -0.0829188 0.7369796 -0.47543472 -0.95720845
-0.40101305 -0.38764077 0.48131517 0.49666646 -0.06511173 0.38145044 -0.18451537 -0.22243617
-0.241929 0.3803399 0.15190573 -0.47704664 -0.39652818 0.07906046 0.25486922 0.007876907
0.41320744 -0.8069857 0.83240414 0.44487736 0.43397397 0.60311574 -0.5099429 -0.69901896
0.19378869 0.7913713 -0.76713336 -0.33485752 -0.5214165 -0.49221426 0.4008027 0.7455674
-0.191744 0.30187652 0.010292065 -0.20884362 -0.50801957 0.25178987 0.77735007 0.2702394
1.6499687 1.3626331 -1.4376652 -1.5622089 0.46277106 -1.4293073 -0.105742924 1.4109349
-0.15108301 0.4747011 -0.66047806 -0.39660117 -0.25876892 -0.0025896195 0.88946086 0.5289661
0.12052406 -0.17460394 -0.19977504 -0.28354207 0.47642985 -0.31872162 -0.259127 0.036716904
0.28330708 0.7489872 -0.7380134 -0.8221946 -0.3762929 -0.74778414 0.38116524 0.49812725
-0.9435765 -0.7455615 0.6571218 0.7591977 0.03865428 0.21751434 -0.94413376 -0.48233935
0.5102739 -0.6776359 0.6966833 0.57116973 -0.14570045 0.3281899 -0.5483065 -1.0129516

intercepts1 f4 [1, 8]
00000000: 90e8 cfbe a3b2 7c3c ba4f b43d b33d 1f3f
00000010: 5e6a 703e bf31 013f 9588 4ebc 09c4 d7be
-0.4060712 0.01542345 0.08804269 0.6220352 0.23478076 0.5046653 -0.012605806 -0.4214175

coefficient2 f4 [8, 1]
00000000: a13e ad3f 076a 8b3f 8aa3 81bf 70c9 a7bf
00000010: 3596 09bf 7dab a4bf d97d b53f 57b6 473f
1.3534738 1.0891732 -1.0128033 -1.3108349 -0.5374482 -1.2864834 1.4179031 0.78012604
