public/assets/prediction-model/seattle_Prediction_MLP.onnx (onnx, 3876 bytes, 5 tensors)

coefficient f4 [19, 20]
00000000: ec4c 56be a3eb 7a3e 304c a0be 2a5d a6be
00000010: bcf0 babe 753b fbbe e44d 77bc 2c8a cc3c
00000020: c78f 153e 42ec 4dbf 4681 003e 8659 dfbe
00000030: 0806 863d 72e0 19bf 334e b63d bb61 33bf
00000040: 045b ba3e 57de ecbe 9f1b 743e 9a6a 233e
00000050: 6fc6 ef3f 44e4 a1bf 585d 60bf edb3 2d3f
00000060: 6227 9e3e e1b2 933e ddda 593e 5bbf 9cbe
00000070: eaad f7be 6e62 5abe 6b43 b8bd 8943 cdbe
00000080: bbdf 903e d5ef 79bd d0d4 e63e 2739 a23e
00000090: b158 79bf 57ee 063f fb45 25be 4754 42bf
000000a0: d322 3f3e 6837 54be de7a 1cbc 6a61 bbbf
000000b0: fee3 a23e 1f49 2f3f 21a9 97bf f6f6 a9bf
000000c0: 8851 a9be df3c 18c0 ef66 6d3f d7fc cbbf
000000d0: b4af 9a3e c1ee ff3e b271 3340 f0ec a33e
000000e0: 0e6f 5e3f bb84 78bf c26a cbbf caa8 df3f
000000f0: 745d 73ba bdb2 c5b9 a008 acbd e396 9f3a
00000100: 8008 80be 3f81 243b 4eaa 74bc e3d7 343c
00000110: 0995 1ebd 3628 1fbb fd1b 67be fc4c 14bc
00000120: dada 0b3e 450e 973c bc28 be3a 3ac5 37be
00000130: a495 28bd fc93 87bc c8d7 42be 8fa2 f43b
00000140: 9fe1 fcba 3d80 5abe 3f2a fe3e 24cc 41be
00000150: 8c50 683e 2e42 b9be 8d5d 13bf 4e64 cd3b
00000160: 7379 6abe c5e1 703d 12d5 a63e 1ba9 9a3e
00000170: 40c8 e63d c7e7 bcbe 9d0e 6e3a dfe6 893e
00000180: 5a6f 723e 7235 34bf 8c90 8c3d f133 de3c
00000190: d751 733e 1ddf f1bd 024f 403b 82eb 58bf
000001a0: 07b0 20bf 73dc 9fbf 5dc7 3ebf c996 92bf
000001b0: e365 47bf 1f4d 4d3f a1aa 0e3f eeb0 3a3f
000001c0: 8356 c3bd bf8f 9c3e fdca 1d40 be5b 8a3e
000001d0: be68 133f 117f f5be 329e 813e c8ec b93f
000001e0: 3206 273f 80d3 d5bf 009c 403a d640 9ebf
000001f0: 60fe cfbd bb6c b1bf cbaf e73e ac54 47bf
00000200: f0af 8bbf 788e 73bf 26a4 dcbd 978c 33bf
00000210: da83 6b3e 3e28 86be 017c 0c40 7095 4f3e
00000220: 0055 d63e 8c73 b5bf 1f5e eb3d d9ec 6c3e
00000230: 7b85 15bf 6c74 eb3e 0abf c6be 1ee5 bc3e
00000240: 7e49 ac3e 7f67 20bf d603 5b3e 6fd1 1ebe
00000250: c2cf 213d 1fbd d3bf 21f2 f43d 7a00 d1be
00000260: 9ad7 1fbf 4092 f33c ef91 a2bd 3dc4 5ebd
00000270: 5e90 133e 45c8 b4be d6e6 3dbf 95db 31bf
00000280: 954d 863d 30ef 873f 9038 edbe e42c ca3b
00000290: 4078 b0be 3d50 0fbf cae7 e73e 120a 2cbe
000002a0: 4bf5 7b3e 7d56 48be 720a 48be fbed a63e
000002b0: 51a3 403e 814b e93d 381f d0be 769e fc3d
000002c0: bbeb 8ebe 6a3a bcbe f22b 94be c661 6dbf
000002d0: 7f6a 1d40 e1f8 ddbf 3c08 29bd 8bfd 17bf
000002e0: 270c e9be 3215 853f 447b c6bf 1673 a13e
000002f0: edc6 abbe a94f b33f 6e04 843e e2d8 a13c
00000300: 9a29 7b3e 1ecc 90bf bd09 d5bf 7d05 f4be
00000310: 39a3 fc3e 24e7 333f b59f 49bf 032e 1840
00000320: 6706 96bf a018 273f 9028 ef3a 9ea6 5a3f
00000330: 568d 56bf a130 aebe 2116 843e 0660 e33e
00000340: 1c54 353f ffce 57bf 7d7e d0bd fb86 fa3e
00000350: 48f6 50be af4e bebe cda7 c33f 3dd0 dbbe
00000360: f906 5fbf 2188 ecbe 4409 353f 9b10 bfbe
00000370: 6453 93bf 096a 743f a57b 9bbd e469 613f
00000380: e047 0dbf 8377 24bf 8c6e 91bd ef51 a53e
00000390: 6d60 193f 682d a9be 2352 a7be 047e dd3e
000003a0: cf96 0bbf c676 cb3e a6b5 c33f b150 5e3e
000003b0: 07d0 5ebf d2ff c3bf 41ab 5c3f a8b3 24bf
000003c0: 9782 41bf bb96 9dbd 1596 06be e5b0 24bd
000003d0: e480 243c 33bb a0bb ba6f 62bd 8897 153f
000003e0: f96d 4abe 695e ac3e 2240 bc3e 7260 913c
000003f0: b501 a13e 9a3e 283d f281 5dbf 19ad 293e
-0.20927781 0.24503951 -0.31308126 -0.32492954 -0.3651179 -0.490688 -0.015094254 0.02496823
0.14605628 -0.80438626 0.12549314 -0.43622988 0.06544119 -0.601081 0.08901634 -0.70071
0.36397564 -0.46263382 0.23838662 0.15958634 1.8732432 -1.2647786 -0.8764243 0.6785267
0.30889422 0.2884741 0.21274896 -0.30614743 -0.48374873 -0.2132661 -0.08997234 -0.40090588
0.28295693 -0.061019737 0.45084238 0.3168423 -0.9740096 0.5270743 -0.16139977 -0.7590985
0.18665628 -0.20724261 -0.009550778 -1.4639103 0.3181457 0.6847095 -1.1848489 -1.3278491
-0.33070016 -2.3787153 0.9273519 -1.5936536 0.30212176 0.49986842 2.8038144 0.32016706
0.86888206 -0.9707753 -1.5891955 1.7473385 -0.000928364 -0.00037707938 -0.084000826 0.0012175705
-0.25006485 0.002510145 -0.014933182 0.0110377995 -0.03871635 -0.0024285442 -0.2256927 -0.009051558
0.13657704 0.018439421 0.0014507989 -0.1794633 -0.041158333 -0.016550057 -0.19027627 0.0074656676
-0.0019293315 -0.21337982 0.49641606 -0.1892553 0.22686976 -0.36183304 -0.5756462 0.0062680608
-0.22897892 0.05880906 0.32584435 0.30207142 0.112686634 -0.36895582 0.0009081157 0.26933953
0.2367529 -0.7039405 0.06863508 0.027124377 0.23761688 -0.118101336 0.0029343967 -0.84734356
-0.62768596 -1.2489151 -0.74522954 -1.1452266 -0.7788984 0.801958 0.5572911 0.72926223
-0.09537985 0.3057842 2.4655144 0.2702312 0.575817 -0.47948506 0.25316006 1.4525385
0.6524383 -1.670517 0.00073474646 -1.2363536 -0.1015594 -1.3861307 0.45251307 -0.77863574
-1.0913067 -0.95139265 -0.10773496 -0.701364 0.22999516 -0.26202577 2.1950686 0.2027185
0.41861725 -1.4175887 0.114925615 0.23137225 -0.584068 0.4598726 -0.38817626 0.36893553
0.3364982 -0.6265792 0.21388182 -0.1550958 0.039504774 -1.654209 0.11960245 -0.40820676
-0.62438357 0.029732823 -0.07937991 -0.054386366 0.1441054 -0.35309044 -0.7418035 -0.6947568
0.06557766 1.0619869 -0.46332216 0.006169902 -0.34466743 -0.5598181 0.4529403 -0.16800717
0.2460529 -0.19564243 -0.19535235 0.3260344 0.188123 0.11391354 -0.40648818 0.123349115
-0.27914223 -0.36763316 -0.28939778 -0.92727315 2.459625 -1.7341577 -0.04126762 -0.5937125
-0.45517084 1.0397093 -1.5506368 0.31533116 -0.33550206 1.4008685 0.2578463 0.019756738
0.24527588 -1.1312292 -1.6643597 -0.47660437 0.4934328 0.7027457 -0.7875932 2.3778083
-1.1720704 0.6527195 0.0018246341 0.8541049 -0.8380941 -0.34021476 0.25798133 0.44409198
0.70831466 -0.84300226 -0.10180376 0.48931107 -0.20406449 -0.37169406 1.5285584 -0.4293231
-0.87120014 -0.46197608 0.70717263 -0.37317356 -1.1509824 0.95474297 -0.07591943 0.880522
-0.551878 -0.6424486 -0.07101163 0.32289073 0.5991276 -0.33042455 -0.32679853 0.43260205
-0.5452699 0.39739054 1.528981 0.21710469 -0.87036175 -1.5312445 0.8619881 -0.64336634
-0.7558989 -0.07694765 -0.13143189 -0.040207762 0.010040496 -0.0049051284 -0.055282332 0.58434343
-0.19768514 0.3366578 0.3676768 0.017746184 0.31446615 0.041075327 -0.86526406 0.16569938

intercepts f4 [1, 20]
00000000: 17b7 48bf 8728 04bd b9c3 05bf c6a9 6a3f
00000010: bb1d c5bd 24f3 0f3f f720 fb3c ca95 843f
00000020: a2d8 203f 884c 053e d767 c4be a6df 603f
00000030: 4435 11bf ef6e 66bd 17f6 21bf 614b c6be
00000040: 18ef 65be dc08 26bc 906b 90bc 5ff1 053e
-0.7840437 -0.032265212 -0.52251774 0.91665304 -0.09624811 0.5623038 0.030655367 1.0358212
0.62830555 0.13017476 -0.38360474 0.8784126 -0.567219 -0.05625814 -0.6326613 -0.38729385
-0.22454488 -0.010133948 -0.017629415 0.13080357

coefficient1 f4 [20, 8]
00000000: ae74 05bd 2c40 a23f 4b81 a9bf 3837 b4bf
00000010: dd58 043f abe3 89bf 244d 1d3f 3c46 e03f
00000020: 78c6 6b3f c79e 25bf 8a4f f43e 068c 353f
00000030: fbac 65bf 38af bf3e dc7d f6be a09c eabd
00000040: 6fd9 2bbf ecc7 16be a0fc a4be 0344 11be
00000050: ace7 b03e cbe4 25bf 84e3 173e caa0 38be
00000060: ac61 03bf 155e 2dbf 7a24 ec3e ba74 893f
00000070: eefc 0bbe e271 b53e 856f abbf 0fa5 61bf
00000080: 84c4 383e a2c2 e53e dcb8 f7be 7f42 5f3d
00000090: 6913 da3e 0968 d3be a266 803e 2135 b43e
000000a0: f910 51bf 01a0 e8be 6fde 0d3f 01bf 9d3e
000000b0: 94fe 863d 852d d23e 4c47 e3be 2477 00bf
000000c0: 2f03 aa3e e7da e13e 54a0 dbbe f3bb 2ebf
000000d0: 96c8 acbe 316b 13bf a2be cfbe 885f 44bc
000000e0: 0a88 b0be abca 3ebf c5a3 2e3f 04a2 213f
000000f0: ab2b 91bd 55a9 213f 4a27 33bf be51 6abf
00000100: f0bf d73e 39ce 06bf 01ca ab3e a986 903f
00000110: d114 16bf b3d4 ab3e 7d0a 37bf 6ff2 c6be
00000120: 9db8 bbbf 4138 0fbf 8319 643f a502 a23f
00000130: 4359 babb c1a1 783f 7592 75be 309e 1e3d
00000140: fc38 04be 492b f13e a7db 18bd b556 2dbf
00000150: 41f9 a6be f951 1ebe 5a07 f13e e589 8c3d
00000160: 1e78 1cbe 8d5f 56bf 0bca 2d3f df10 d53e
00000170: bfda 42be ed51 aa3e 19bf d3be 6bb2 68bf
00000180: 7cc2 1dbe 59e7 133f 6cf4 0ebf c168 aebd
00000190: b7c4 6c3e c731 cdbe a547 7a3e 0305 de3e
000001a0: aef9 143b c02b cb3e ff61 f6bc 00b3 a3be
000001b0: 04e8 eebe 061c a33e ef72 363f b3d8 e93e
000001c0: aa20 b83f 0d19 9d3f 3924 adbf 8e91 b9bf
000001d0: 31e2 333e b8e7 a1bf ea8d ffbd 8d52 a13f
000001e0: 34ec f6be 76c6 e93e 13b1 18bf 3f14 94be
000001f0: 4e80 6fbd 93ff 033e c356 223f c92b 253f
00000200: 53ed b93d 3caa a03e acdc 34bf 0bfc 31bf
00000210: 9430 0b3f c1b6 3bbf 72fe cc3e 1ef6 a73e
00000220: b394 c7be 8ccb 31be 3fe9 103e 2f3e 203f
00000230: 8356 d7be e8c8 d83e cf26 3ebf 5e11 20bf
00000240: dccf 82bf 5a89 4abe bd37 893e 89cb 8c3e
00000250: 3956 1e3d 478c 9c3e 7c6e aebd 96ef 0e3d
00000260: 9bc9 8bbe fb87 42bf 638e 433f 8d3a 023f
00000270: c6dd 183e d4d1 073f b481 87be fa05 40bf
-0.032581978 1.2675834 -1.3242582 -1.4079351 0.51698095 -1.0772604 0.6144583 1.7521434
0.92099714 -0.646954 0.47716933 0.70916784 -0.8971707 0.3743837 -0.48142898 -0.11455655
-0.6712865 -0.14724702 -0.32223988 -0.141861 0.34551752 -0.64802235 0.14832884 -0.18030086
-0.5132091 -0.6772168 0.4612158 1.0738747 -0.13670704 0.35438448 -1.3393408 -0.88142484
0.18043715 0.44875056 -0.48383224 0.054506775 0.42592934 -0.4129031 0.25078303 0.35196784
-0.81666523 -0.45434573 0.5541753 0.30809787 0.06591526 0.41050354 -0.44390333 -0.50181794
0.33205554 0.44112322 -0.42895758 -0.6825554 -0.33746785 -0.57585436 -0.4057513 -0.011985667
-0.3447879 -0.74527997 0.6821864 0.6313784 -0.07088407 0.63149005 -0.69981825 -0.9153098
0.42138624 -0.5265842 0.33552554 1.1291095 -0.58625513 0.33560714 -0.7150038 -0.38856837
-1.4665715 -0.5594521 0.8910143 1.2657057 -0.0056869104 0.97121817 -0.2398165 0.038725078
-0.12912363 0.47103336 -0.03731885 -0.6771043 -0.3261204 -0.15460958 0.4707592 0.06862239
-0.15280196 -0.8373955 0.6788642 0.41614434 -0.19028758 0.3326563 -0.41356733 -0.90897244
-0.15406221 0.57774884 -0.5584171 -0.08516074 0.23121916 -0.4007704 0.24441393 0.433632
0.0022731829 0.39681816 -0.030076025 -0.31972504 -0.4666139 0.31857318 0.71269125 0.4567314
1.4384968 1.227327 -1.3526679 -1.4497545 0.17566754 -1.264884 -0.1247824 1.2603317
-0.48227084 0.45659226 -0.59645194 -0.28921697 -0.05847197 0.12890463 0.6341364 0.64519936
0.09078469 0.3137988 -0.7064922 -0.6952521 0.54371 -0.73325735 0.40037876 0.3280496
-0.38980636 -0.17362803 0.14151476 0.62594885 -0.4205819 0.4234078 -0.7427797 -0.625265
-1.0219684 -0.19778958 0.26800337 0.27499035 0.038656447 0.30575773 -0.08517167 0.034896456
-0.2730225 -0.7598874 0.7638914 0.5087059 0.1492835 0.5305455 -0.26466143 -0.7500912

intercepts1 f4 [1, 8]
00000000: f1bc 35bf c02b 1bbe c65b 7b3e b2d5 4b3f
00000010: e044 1b3e 4b1c 133f fcf8 2e3e a99c 23bf
-0.70991427 -0.15153408 0.24546728 0.7962295 0.15162992 0.57465047 0.17087168 -0.6391092

coefficient2 f4 [8, 1]
00000000: 2886 c03f 76df 8a3f c3f7 9abf fc02 c2bf
00000010: fd7c 0ebf 3bd1 cfbf 3894 903f 7794 813f
1.5040941 1.0849445 -1.2106861 -1.5157161 -0.55659467 -1.6235727 1.1295233 1.0123433
