scripts/prediction-model-data/predictionModel.onnx (onnx, 4988 bytes, 5 tensors)

sequential/dense_2/MatMul/ReadVariableOp:0 f4 [11, 1]
0.78526264 0.6266201 0.95993525 -1.0362389 0.81572354 1.0544912 -1.4149393 0.8238417
-0.87696284 0.85635054 0.46610186
00000000: f906 493f 2d6a 203f 51be 753f 7aa3 84bf
00000010: 42d3 503f 91f9 863f bb1c b5bf 4ae7 523f
00000020: a380 60bf ca39 5b3f e7a4 ee3e

sequential/dense_1/MatMul/ReadVariableOp:0 f4 [24, 11]
0.41646412 0.58778393 0.16170125 0.018188938 0.46648192 0.40751845 -0.21967769 0.043840792
-0.23051459 0.59088075 0.6335387 1.0831728 0.51449865 0.73652774 -0.5279055 0.6655753
0.9945908 -0.6123413 0.8346595 -1.0175576 0.9338437 0.6529738 0.5324384 0.79340726
0.7747094 -0.021789365 0.18231054 0.75326335 -0.0020461327 0.33992943 0.105286926 0.63746953
0.73302317 0.08547652 0.0022998862 -0.15793541 -0.2902478 0.11523976 0.106631055 -0.31625366
-0.21085964 0.005641401 0.1075994 -0.34709588 0.5885423 0.2603429 0.67134964 -0.5011584
0.8642931 0.15837672 -0.6476263 0.23807372 -0.41729492 0.7972888 0.92111015 0.21178064
0.4145643 0.37728605 -0.34991536 -0.01473225 0.48457932 0.08405288 0.44427285 0.039482243
0.31986195 0.3741552 -0.077578574 -0.13019028 -0.23234051 -0.0050192582 0.2873619 -0.051961485
-0.051925562 0.0023604215 -0.05935865 -0.1994848 0.33273894 -0.11954791 -0.46278986 -0.284562
0.5583591 -0.080883004 -0.4581128 0.460352 -0.036270726 0.6788003 -0.45472953 -0.2151067
1.1411524 0.84781855 0.54070777 -0.4046423 1.0425522 0.83955175 -0.67901 0.83496314
-1.0571518 0.51898056 1.43633 -0.40625414 -0.15573494 -0.2006961 0.27964354 -0.4876551
0.07272671 0.30440745 -0.24930096 0.73123395 0.1925059 -0.56858003 0.10314516 -0.15947697
0.13359994 0.09073593 0.2874415 -0.15058085 -0.12692557 0.24403268 0.12675965 0.07710135
0.3662703 -0.78928566 -0.9757194 -0.536814 1.2547019 -0.76544154 -0.5804073 1.2392654
-0.96607494 1.3938215 -0.5566384 -0.4778794 0.2750921 0.31374276 0.37841251 -0.18198355
0.2180863 -0.20107503 -0.12413453 -0.024671577 0.024298582 -0.10788528 0.08795408 -0.55944484
-0.36373866 -0.643389 0.91803247 -0.6757885 -0.50139195 0.71499646 -0.35592762 1.230369
-0.6279643 -0.67127395 0.03541759 0.18915741 -0.20163691 -0.20791948 0.2419587 0.32233164
-0.2118911 0.24629493 0.15508458 -0.085837126 0.3371092 -0.70162207 -0.8239067 -0.23923086
0.7960241 -0.20474668 -0.56650305 0.47237894 -0.82939345 0.65100956 -0.5682489 -0.7655872
0.41624346 0.75119317 0.6234129 -0.1556937 0.71521056 0.35813648 -0.18899442 0.16609366
-0.436393 0.60999715 0.7179008 0.1237954 0.042319536 0.2644174 0.099717654 0.09669236
0.30063102 -0.029519083 0.0046678996 0.12177771 -0.30445454 0.15493979 0.14892282 0.56484836
0.22204638 -0.18542744 0.15360092 0.2013126 -0.17573638 0.4293085 -0.19579573 0.40013582
0.32847282 0.30121258 0.38445902 0.34157333 0.0073137213 -0.1500097 0.11628572 -0.05194288
0.4042399 -0.12482581 0.38950107 0.50656044 -0.41727266 -1.0911212 -0.73837227 0.6856217
-0.1912226 -0.7108243 0.9403475 -0.64304906 0.85830814 -0.6350926 -0.35393968 -0.036614843
-0.25624618 -0.42398074 0.51066065 -0.12004554 -0.18780708 0.13357987 -0.25733894 0.057885118
-0.30221912 0.06803881 0.11569504 0.61879253 0.16360027 -0.0050528874 0.41907904 0.24728674
-0.32961136 0.7089924 -0.6592976 0.65006924 0.5411096 0.2649886 0.30687517 0.14163981
00000000: c93a d53e 0279 163f 0395 253e f800 953c
00000010: b8d6 ee3e 42a6 d03e 30f3 60be 6792 333d
00000020: 040c 6cbe f643 173f 982f 223f 68a5 8a3f
00000030: 2fb6 033f 158d 3c3f d124 07bf 2563 2a3f
00000040: 819d 7e3f 66c2 1cbf 3fac 553f 543f 82bf
00000050: 6110 6f3f 4a29 273f e24d 083f bd1c 4b3f
00000060: 5b53 463f 9c7f b2bc 9daf 3a3e ded5 403f
00000070: 6918 06bb 3b0b ae3e aca0 d73d 3431 233f
00000080: 68a7 3b3f 500e af3d b0b9 163b d2b9 21be
00000090: 5c9b 94be d302 ec3d 6261 da3d 00ec a1be
000000a0: 97eb 57be 80db b83b 135d dc3d 8db6 b1be
000000b0: b5aa 163f aa4b 853e 92dd 2b3f eb4b 00bf
000000c0: 5042 5d3f 822d 223e d6ca 25bf 99c9 733e
000000d0: aea7 d5be 1e1b 4c3f e0cd 6b3f 06dd 583e
000000e0: c641 d43e a32b c13e 1b28 b3be 895f 71bc
000000f0: c81a f83e eb23 ac3d bb77 e33e 22b8 213d
00000100: f2c4 a33e 4591 bf3e 84e1 9ebd 9a50 05be
00000110: acea 6dbe 9778 a4bb 1921 933e 91d5 54bd
00000120: e6af 54bd 4db1 1a3b 0e22 73bd be45 4cbe
00000130: c25c aa3e 89d5 f4bd cbf2 ecbe 1cb2 91be
00000140: 9ff0 0e3f fda5 a5bd c38d eabe 42b3 eb3e
00000150: 9d90 14bd dbc5 2d3f 4fd2 e8be ee44 5cbe
00000160: 4811 923f a30a 593f d36b 0a3f 472d cfbe
00000170: 5a72 853f ddec 563f 99d3 2dbf 25c0 553f
00000180: c050 87bf e9db 043f a9d9 b73f 8b00 d0be
00000190: fb78 1fbe 4783 4dbe 702d 8f3e eead f9be
000001a0: bef1 943d 4bdb 9b3e c048 7fbe 2632 3b3f
000001b0: 4420 453e 768e 11bf c53d d33d ee4d 23be
000001c0: 6cce 083e c2d3 b93d 882b 933e de31 1abe
000001d0: c7f8 01be b4e3 793e 48cd 013e 50e7 9d3d
000001e0: c887 bb3e a00e 4abf bfc8 79bf a46c 09bf
000001f0: 129a a03f faf3 43bf 9395 14bf 40a0 9e3f
00000200: b050 77bf be68 b23f db7f 0ebf 9cac f4be
00000210: dfd8 8c3e e4a2 a03e 49bf c13e e559 3abe
00000220: 0452 5f3e 9de6 4dbe 3f3a febd 0c1c cabc
00000230: d20d c73c f5f2 dcbd 4521 b43d c737 0fbf
00000240: f43b babe 24b5 24bf 2d04 6b3f 7a00 2dbf
00000250: 395b 00bf 020a 373f 253c b6be bb7c 9d3f
00000260: 45c2 20bf 9cd8 2bbf 0912 113d 7bb2 413e
00000270: e879 4ebe d8e8 54be 05c4 773e a708 a53e
00000280: fbf9 58be bd34 7c3e 7ece 1e3e 60cb afbd
00000290: 9499 ac3e 819d 33bf 8deb 52bf eff8 74be
000002a0: 3cc8 4b3f 1da9 51be 5806 11bf a7db f13e
000002b0: 2153 54bf 90a8 263f c378 11bf 86fd 43bf
000002c0: dd1d d53e 324e 403f fd97 1f3f 2b6e 1fbe
000002d0: 0a18 373f aa5d b73e c187 41be 7514 2a3e
000002e0: e76e dfbe c628 1c3f 59c8 373f 7188 fd3d
000002f0: 4057 2d3d b861 873e c538 cc3d a506 c63d
00000300: 4fec 993e 01d2 f1bc 2ef5 983b 9866 f93d
00000310: 77e1 9bbe 89a8 1e3e 397f 183e e799 103f
00000320: 2060 633e b1e0 3dbe 8f49 1d3e e424 4e3e
00000330: 3df4 33be 53ce db3e ad7e 48be 9ade cc3e
00000340: 972d a83e 8938 9a3e d0d7 c43e b3e2 ae3e
00000350: f1a7 ef3b 259c 19be 3527 ee3d 0fc2 54bd
00000360: 88f8 ce3e ada4 ffbd af6c c73e f2ad 013f
00000370: c3a4 d5be dca9 8bbf f705 3dbf e784 2f3f
00000380: dbcf 43be 95f8 35bf 9dba 703f dd9e 24bf
00000390: 15ba 5b3f 6e95 22bf 9537 b5be 72f9 15bd
000003a0: b332 83be 0114 d9be a8ba 023f 70da f5bd
000003b0: 8050 40be 29c9 083e eec1 83be f218 6d3d
000003c0: 77bc 9abe ee57 8b3d 85f1 ec3d 3069 1e3f
000003d0: d486 273e b192 a5bb 8791 d63e bc38 7d3e
000003e0: d2c2 a8be 8780 353f bac7 28bf f06a 263f
000003f0: 2986 0a3f 96ac 873e be1e 9d3e 070a 113e

sequential/dense_1/BiasAdd/ReadVariableOp:0 f4 [11]
0.09060473 0.18772182 0.08902749 0.1447716 0.09521207 0.13011903 0.14804609 0.09529392
0.14551918 0.085597076 0.060200986
00000000: f98e b93d 263a 403e 0b54 b63d 023f 143e
00000010: 8cfe c23d ec3d 053e 6599 173e 7529 c33d
00000020: fb02 153e 854d af3d 4f95 763d

sequential/dense/MatMul/ReadVariableOp:0 f4 [23, 24]
0.18475528 -0.40677202 0.051840313 -0.22396189 0.2513016 -0.35535806 -0.42187577 -0.054415114
-0.25326028 -0.24218096 0.30237508 0.46094036 0.2955915 0.4412144 0.2826463 -0.6056081
-0.39312032 -0.028995257 -0.22269449 0.06984303 -0.4670532 -0.09411736 -0.23413543 0.37821287
0.27603576 0.9420206 0.9888244 -0.12579542 1.1081243 0.47833547 0.21506698 -0.5466815
0.8062546 -0.58088446 0.37157172 -1.1929828 0.26258275 -0.83296525 0.37354568 -0.9252291
0.8876244 -0.35324898 0.45846596 0.7014281 -0.6704912 -0.42405108 0.65986896 0.66886944
0.10726965 -0.020265812 -0.0051728976 0.009282522 0.018282268 -0.12010346 -0.2888199 -0.053988367
-0.012784684 -0.029051997 0.11198642 -0.019956205 0.15231353 -0.05699293 0.14929691 -0.0050809453
-0.06084405 -0.21797645 0.2162482 -0.07540953 -0.002923133 -0.26534274 0.0003148259 -0.0019804297
-0.3554176 0.20784993 -0.12393013 0.1841422 -0.42887607 0.5979861 -0.18607758 0.15065145
0.3342674 0.3152587 0.33265752 -0.73025507 -0.084375024 -0.6336559 0.043747064 0.3195249
0.398116 -0.23765515 0.280401 -0.010247471 -0.20418581 0.109658085 0.101030245 -0.0145624075
0.42187262 0.1288372 0.35294285 0.12290998 0.46898392 0.1369604 -0.43428394 -0.0089032175
-0.111396335 -0.12132779 0.23254855 0.06877901 -0.08597579 0.22462714 0.12977946 -0.16965526
0.17244841 0.17073545 -0.2353276 0.03374476 -0.20425728 -0.36247244 -0.021449313 0.31953073
0.4059252 -0.17168541 -0.08641172 -0.33723047 0.23477548 0.07306139 0.17957072 -0.25253052
0.3883972 -0.33056718 -0.06502743 -0.81787556 0.12285652 -0.6549714 0.19651566 -0.110112146
0.062948726 -0.06853765 0.39911848 0.25023353 -0.16491501 -0.08283287 -0.17935544 0.24175315
-0.22791944 0.18033521 -0.05838903 0.31873903 -0.056809947 0.1456046 -0.072587825 -0.336966
0.06299803 0.13745691 -0.214758 -0.48778105 -0.1541763 -0.16706845 0.05597365 -0.12562555
0.1388882 -0.14495869 0.24873224 -0.03705638 -0.060661033 -0.15719223 0.10200262 0.060331937
-0.30341402 -0.1471216 -0.2773217 -0.098860405 -0.026474537 0.3114256 0.22248872 0.53388155
-0.0663856 0.4162847 -0.28674486 -0.37121797 -0.0015913772 -0.65314865 -0.20466667 0.12377303
0.038006634 0.10095515 0.3467979 -0.41273868 0.24113323 0.15625723 0.260306 -0.33374903
0.018753516 -0.7953844 -0.04347741 -0.17982444 -0.17172228 -0.0908077 -0.11180082 0.25262582
-0.04517027 -0.26657256 -0.3161498 0.26065236 -0.46478465 0.3942813 -0.2035762 -0.73010945
-0.45598447 -0.16730888 -0.24735272 0.027969798 0.056562334 0.14506543 0.611817 -0.73979783
-0.2865965 0.13464434 0.14939459 0.032465678 -0.23204571 -0.23271535 -0.21836698 0.16084443
-0.38661855 0.41074616 -0.1590947 0.31252366 -0.10764885 0.22323446 -0.23979387 0.4274973
-0.10885719 0.05871412 -0.6998721 -0.039012566 0.4723795 0.18804844 -0.06612015 -0.4661638
-0.20564958 0.016758926 -0.055344127 -0.132592 0.20826648 -0.054872997 -0.29767266 -0.019215588
-0.022584952 -0.011023793 0.060605712 -0.23975204 -0.13305715 0.16575915 -0.12448026 -0.03675849
00000000: 7d30 3d3e 6c44 d0be 8256 543d 4456 65be
00000010: 9aaa 803e 7ef1 b5be 1a00 d8be 62e2 5ebd
00000020: 55ab 81be 49fe 77be e8d0 9a3e 6000 ec3e
00000030: c557 973e dbe6 e13e 04b7 903e 2209 1bbf
00000040: 1147 c9be 7687 edbc 060a 64be dd09 8f3d
00000050: 9921 efbe 9ac0 c0bd 33c1 6fbe 1ea5 c13e
00000060: 8f54 8d3e 4328 713f 9923 7d3f 84d0 00be
00000070: 04d7 8d3f 63e8 f43e 853a 5c3e 52f3 0bbf
00000080: b466 4e3f d8b4 14bf a63e be3e a9b3 98bf
00000090: 3f71 863e 363d 55bf 6141 bf3e d0db 6cbf
000000a0: 5a3b 633f 0ddd b4be 0dbc ea3e cb90 333f
000000b0: 50a5 2bbf 391d d9be 2ced 283f 073b 2b3f
000000c0: 31b0 db3d 7d04 a6bc 6981 a9bb b815 183c
000000d0: b2c4 953c cef8 f5bd 34e0 93be e822 5dbd
000000e0: da76 51bc 74fe edbc 2359 e53d 327b a3bc
000000f0: 14f8 1b3e 6b71 69bd 4ae1 183e 0f7e a6bb
00000100: 9c37 79bd 3835 5fbe 2b70 5d3e 5070 9abd
00000110: 0992 3fbb 01db 87be 380f a539 19ca 01bb
00000120: 4cf9 b5be 9dd6 543e 14cf fdbd c68f 3c3e
00000130: a595 dbbe 9e15 193f 1f8b 3ebe 6044 1a3e
00000140: 1925 ab3e 9769 a13e 1652 aa3e fff1 3abf
00000150: d0cc acbd 4637 22bf 1f30 333d c598 a33e
00000160: dcd5 cb3e df5b 73be b890 8f3e 02e5 27bc
00000170: 1616 51be 6b94 e03d f2e8 ce3d 2a97 6ebc
00000180: b0ff d73e e6ed 033e edb4 b43e 3ab8 fb3d
00000190: a91e f03e 593f 0c3e 775a debe cdde 11bc
000001a0: c323 e4bd b47a f8bd 3521 6e3e 02dc 8c3d
000001b0: 1314 b0bd a804 663e e8e4 043e 1cba 2dbe
000001c0: 5196 303e 46d5 2e3e b8f9 70be f237 0a3d
000001d0: d228 51be fd95 b9be 78b6 afbc 8899 a33e
000001e0: 6ed5 cf3e 4dce 2fbe a1f8 b0bd 79a9 acbe
000001f0: fc68 703e 36a1 953d 63e1 373e ae4b 81be
00000200: ffdb c63e 1a40 a9be 1a2d 85bd 4b60 51bf
00000210: 339c fb3d 35ac 27bf 673b 493e 7a82 e1bd
00000220: 43eb 803d 785d 8cbd 4259 cc3e 9c1e 803e
00000230: 7bdf 28be 48a4 a9bd f4a8 37be 238e 773e
00000240: b763 69be cba9 383e 5629 6fbd c331 a33e
00000250: 8cb1 68bd 5f19 153e eda8 94bd cf86 acbe
00000260: 1c05 813d 81c1 0c3e 85e9 5bbe 70be f9be
00000270: 64e0 1dbe fe13 2bbe a044 653d fca3 00be
00000280: b538 0e3e 0d70 14be aab3 7e3e 6ec8 17bd
00000290: b477 78bd 00f7 20be c0e6 d03d 9f1e 773d
000002a0: 1559 9bbe 0ba7 16be 1cfd 8dbe 5377 cabd
000002b0: 21e1 d8bc 2d73 9f3e 15d4 633e 76ac 083f
000002c0: 2cf5 87bd 4523 d53e 39d0 92be 4810 bebe
000002d0: c295 d0ba c034 27bf 2494 51be b77c fd3d
000002e0: d8ac 1b3d 93c1 ce3d 7f8f b13e 7c52 d3be
000002f0: a1eb 763e e501 203e d446 853e 27e1 aabe
00000300: f9a0 993c 509e 4bbf 5e15 32bd e623 38be
00000310: f7d7 2fbe 63f9 b9bd d4f7 e4bd 2c58 813e
00000320: 7604 39bd 337c 88be 63de a1be 3a74 853e
00000330: 41f8 edbe 3ddf c93e 4876 50be 74e8 3abf
00000340: cc76 e9be 0553 2bbe 084a 7dbe eb20 e53c
00000350: e8ad 673d 088c 143e 0aa0 1c3f 6463 3dbf
00000360: c7bc 92be 35e0 093e e5fa 183e bbfa 043d
00000370: 649d 6dbe ef4c 6ebe 989b 5fbe 67b4 243e
00000380: def2 c5be 524d d23e b9e9 22be 1a03 a03e
00000390: 0077 dcbd 9397 643e 868c 75be ede0 da3e
000003a0: 85f0 debd 387e 703d d12a 33bf a4cb 1fbd
000003b0: badb f13e c58f 403e 006a 87bd 06ad eebe
000003c0: ce95 52be 044a 893c 86b0 62bd 32c6 07be
000003d0: cf43 553e 82c2 60bd 8d68 98be 026a 9dbc
000003e0: 1404 b9bc 249d 34bc b23d 783d 8f81 75be
000003f0: 2240 08be c4bc 293e 82ef febd 1290 16bd

sequential/dense/BiasAdd/ReadVariableOp:0 f4 [24]
-0.09604074 -0.028752923 -0.023472495 0.04369206 -0.025993077 -0.050277896 -0.11047731 0.062389545
-0.080051415 0.0056091887 0.010738491 0.11382997 -0.09725678 0.06868054 -0.07152402 0.009183292
-0.027764754 -0.065054156 0.0076603927 -0.1318736 0.07855629 -0.05160946 0.18205222 0.035043694
00000000: 02b1 c4bd 408b ebbc 6449 c0bc 72f6 323d
00000010: 6fef d4bc 32f0 4dbd ee41 e2bd 2e8c 7f3d
00000020: fff1 a3bd 49cd b73b 7ff0 2f3c b01f e93d
00000030: 902e c7bd 62a8 8c3d 2f7b 92bd 8575 163c
00000040: e972 e3bc 1d3b 85bd 0804 fb3b df09 07be
00000050: 1fe2 a03d 7164 53bd e66b 3a3e fa89 0f3d
